bostonRegression.pth (torch, 15233 bytes, 5 tensors)

model.0.weight f4 [64, 13]
0.2914421 0.31067595 0.15429951 -0.02182872 -0.13910744 0.08665383 0.03378948 -0.08966334
0.09732308 -0.110431865 0.045217976 0.18441406 -0.05580143 0.0795781 0.25646362 0.021901995
-0.030263126 -0.2263544 0.030685723 0.23611483 0.06291744 -0.1511304 -0.1920883 -0.17925066
-0.24773844 -0.071944684 0.023668773 0.23109378 0.02725125 -0.5515563 0.20715865 -0.06345621
0.13647784 0.5067212 0.0893925 -0.31330222 -0.054169055 0.10369211 0.23492603 0.14713328
0.017513007 0.21989667 0.5644552 0.22155769 0.22230227 0.31735137 -0.27322185 0.22421291
0.085075065 0.19138005 -0.2430405 -0.43576398 0.046140738 0.13499224 -0.15229414 -0.3746217
0.042795535 -0.1550039 0.058444902 0.49143177 -0.19540243 0.1964182 0.4133651 0.10706762
0.5671402 -0.09437188 0.0871215 -0.013789133 0.689595 -0.011945276 0.63029605 0.20638198
-0.09914666 0.1853652 0.22960629 -0.1477251 0.25232056 -0.28216228 -0.28131577 0.008460273
0.03427605 0.49973065 -0.034482744 0.16636471 -0.16640043 -0.39817947 -0.042258807 0.24371724
-0.13861467 0.12679355 -0.10660855 0.08711788 -0.11903702 0.015342385 -0.07880288 -0.12646356
-0.117927074 -0.12140983 0.1387183 -0.27497125 -0.19657046 0.10733819 0.019300282 0.18904278
-0.30746967 -0.11640996 -0.30596521 -0.20426956 -0.19838575 0.000777154 -0.14346062 0.14788647
0.07492846 0.11292571 -0.15761396 -0.29016998 0.10034299 0.38438225 0.060772307 0.013096836
-0.93621576 0.20140144 -0.2763447 -0.2024233 0.022562427 0.15792854 0.12252307 0.05711799
0.00047198607 -0.020967958 -0.30857036 -0.07796488 0.21115828 0.68228656 -0.122117676 0.40592098
0.17256242 -0.2665364 -0.031512763 -0.16226116 -0.19552477 0.24829935 -0.3498102 -0.11841962
-0.2023157 0.01025036 0.074246496 0.20707664 0.08203742 0.11399132 0.24668363 0.21747789
-0.13188565 -0.08068712 -0.07438283 0.19166085 0.013042267 -0.0035994295 -0.26480296 0.18619218
-0.101373605 -0.110949375 -0.1683134 -0.2185372 0.3829281 0.189543 -0.22499159 -0.24964477
-0.5412545 0.093139924 0.062409513 -0.10595118 -0.7603783 -0.011301199 -0.4915025 0.07527137
0.39257967 0.036122244 0.15146302 0.004044505 0.15229101 0.51618457 0.40302968 -0.06520398
0.039633762 -0.18242005 -0.21029894 -0.089732036 0.30792123 -0.00530061 -0.20511194 -0.19463381
-0.05169016 0.2163494 -0.77323514 -0.15053603 0.09082435 0.21727142 0.6893852 -0.12122563
0.20440838 0.2252729 -0.42969218 -0.005268442 0.050487593 -0.2755368 -0.032129776 -0.34459645
-0.040717874 -0.19990818 -0.40865654 0.27991033 0.18000652 -0.09300204 -0.07225098 0.0986685
-0.12839878 -0.09657493 -0.3049276 0.06627896 0.22205904 -0.22602782 -0.18853313 -0.25035912
0.030424714 0.26474455 -0.16399005 -0.26181716 0.26024136 -0.08830781 -0.0928469 0.061594307
-0.25034127 -0.2095066 -0.39742285 -0.28159186 -0.26198855 0.5649811 -0.062757716 0.5268502
0.011766335 -0.15126066 0.048669696 0.0029035797 -0.254586 0.18588614 -0.51436615 -0.3332374
0.20858787 0.022439757 0.2542624 0.15559165 0.27733734 -0.034992926 -0.15177907 -0.21376516
00000000: e637 953e eb10 9f3e b100 1e3e 25d2 b2bc
00000010: 2e72 0ebe 9077 b13d d666 0a3d 6aa1 b7bd
00000020: 5351 c73d 1a2a e2bd 7c36 393d 0ad7 3c3e
00000030: 0a90 64bd d8f9 a23d 334f 833e d06b b33c
00000040: 60ea f7bc 73c9 67be a060 fb3c 16c8 713e
00000050: dcda 803d edc1 1abe ccb2 44be 7c8d 37be
00000060: 25af 7dbe bc57 93bd 04e5 c13c d9a3 6c3e
00000070: 033e df3c cb32 0dbf 6621 543e 54f5 81bd
00000080: d9c0 0b3e 7bb8 013f 6a13 b73d 2669 a0be
00000090: 5fe0 5dbd 875c d43d 7390 703e 1baa 163e
000000a0: 7077 8f3c 982c 613e 2380 103f 05e0 623e
000000b0: 35a3 633e e17b a23e bce3 8bbe 1298 653e
000000c0: d63b ae3d 22f9 433e 9cdf 78be 751c dfbe
000000d0: 12fe 3c3d 683b 0a3e fff2 1bbe 6ace bfbe
000000e0: 5f4a 2f3d 58b9 1ebe ec63 6f3d f29c fb3e
000000f0: 9317 48be da21 493e 97a4 d33e 4546 db3d
00000100: 1a30 113f 0b46 c1bd c26c b23d d1eb 61bc
00000110: 4c89 303f 1eb6 43bc 155b 213f cc55 533e
00000120: 670d cbbd 60d0 3d3e e91d 6b3e 4045 17be
00000130: 2930 813e 9377 90be 9f08 90be f59c 0a3c
00000140: 0b65 0c3d b2dc ff3e c73d 0dbd 835b 2a3e
00000150: e064 2abe 2ede cbbe 9217 2dbd 0391 793e
00000160: 01f1 0dbe 2bd6 013e 9555 dabd dc6a b23d
00000170: aec9 f3bd a05e 7b3c 6863 a1bd aa7f 01be
00000180: c083 f1bd b8a5 f8bd 2c0c 0e3e 08c9 8cbe
00000190: c449 49be 20d4 db3d a01b 9e3c 6e94 413e
000001a0: aa6c 9dbe 5868 eebd 79a7 9cbe 0a2c 51be
000001b0: a225 4bbe ecb9 4b3a 57e7 12be 8d6f 173e
000001c0: 1874 993d 9845 e73d 8e65 21be 2991 94be
000001d0: a080 cd3d c0cd c43e 62ec 783d 1d94 563c
000001e0: d6ab 6fbf 2e3c 4e3e 0d7d 8dbe 0e48 4fbe
000001f0: d7d4 b83c 05b8 213e 60ed fa3d 8ef4 693d
00000200: e674 f739 ffc4 abbc effc 9dbe 0dac 9fbd
00000210: e039 583e 55aa 2e3f d518 fabd e0d4 cf3e
00000220: 34b4 303e 7677 88be 8713 01bd ca27 26be
00000230: a537 48be 2f42 7e3e 531a b3be fc85 f2bd
00000240: d92b 4fbe 20f1 273c 8c0e 983d e60b 543e
00000250: 3c03 a83d 4874 e93d a29a 7c3e 86b2 5e3e
00000260: 080d 07be 4a3f a5bd 0656 98bd be42 443e
00000270: 3caf 553c 68e4 6bbb 4194 87be 2aa9 3e3e
00000280: f79c cfbd 6d39 e3bd 595a 2cbe 37c8 5fbe
00000290: 270f c43e 8f17 423e 3264 66be e1a2 7fbe
000002a0: a88f 0abf 25c0 be3d 1ea1 7f3d effc d8bd
000002b0: 27a8 42bf aa28 39bc 37a6 fbbe e027 9a3d
000002c0: 3400 c93e ebf4 133d 1f19 1b3e c487 843b
000002d0: 2df2 1b3e ac24 043f e859 ce3e aa89 85bd
000002e0: 0357 223d 52cc 3abe 9b58 57be 6ec5 b7bd
000002f0: daa7 9d3e bdb0 adbb dd08 52be 164e 47be
00000300: 10b9 53bd b28a 5d3e bdf2 45bf 1e26 1abe
00000310: 1e02 ba3d 667c 5e3e 8c7b 303f 2545 f8bd
00000320: 6e50 513e f0ad 663e 9d00 dcbe e5a2 acbb
00000330: 14cc 4e3d 2913 8dbe 839a 03bd f26e b0be
00000340: c9c7 26bd bbb4 4cbe 6e3b d1be 6850 8f3e
00000350: a153 383e db77 bebd 52f8 93bd b612 ca3d
00000360: f87a 03be 14c9 c5bd 781f 9cbe 43bd 873d
00000370: 7263 633e d673 67be d40e 41be 122f 80be
00000380: 403d f93c 998c 873e 02ed 27be e60c 86be
00000390: 5b3e 853e bada b4bd 8426 bebd 504a 7c3d
000003a0: bb2c 80be e688 56be 027b cbbe cf2c 90be
000003b0: 5d23 86be 9aa2 103f 1e87 80bd a8df 063f
000003c0: 96c7 403c 13e4 1abe e059 473d fc49 3e3b
000003d0: 1959 82be f058 3e3e 80ad 03bf 189e aabe
000003e0: 0f98 553e 95d3 b73c ae2e 823e 6b53 1f3e
000003f0: 29ff 8d3e be54 0fbd f96b 1bbe 41e5 5abe

model.0.bias f4 [64]
-0.07301835 -0.06287955 0.1019423 0.013684258 0.00048798328 0.25400305 0.20524564 -0.271758
0.014718538 0.06279647 0.03950679 -0.25662863 0.27017578 -0.3091096 -0.09263576 0.29329348
0.19757587 0.04888028 0.1614896 -0.033394787 0.026512746 0.055728856 0.11588652 -0.31166857
0.02910152 0.2670904 0.11792367 -0.20189472 0.13176817 -0.103801206 -0.06880216 -0.17877464
0.25159898 -0.2653785 0.067416996 0.081011035 -0.054536995 0.043910522 -0.08272587 0.09417209
0.25013283 0.11041057 -0.11083688 -0.37392136 0.35323688 0.03611044 -0.30445775 -0.11491668
-0.09083201 0.097506434 -0.0025900006 0.24552187 -0.144471 -0.23030747 -0.194265 -0.29545727
-0.18464403 -0.25442338 -0.004336804 0.14197618 -0.003697753 0.14520893 0.021344531 0.17843908
00000000: a58a 95bd fec6 80bd 20c7 d03d f033 603c
00000010: 02d8 ff39 b00c 823e ea2b 523e dd23 8bbe
00000020: 0626 713c 709b 803d dfd1 213d d464 83be
00000030: 7b54 8a3e 9d43 9ebe d1b7 bdbd 902a 963e
00000040: 5451 4a3e b036 483d 885d 253e f9c8 08bd
00000050: 4231 d93c f143 643d e955 ed3d 0693 9fbe
00000060: 5066 ee3c 13c0 883e f781 f13d 7dbd 4ebe
00000070: 3cee 063e ba95 d4bd 26e8 8cbd b310 37be
00000080: 95d1 803e b1df 87be ec11 8a3d 1de9 a53d
00000090: 2f62 5fbd 85db 333d 2e6c a9bd 4cdd c03d
000000a0: 6911 803e f01e e23d 72fe e2bd 9f72 bfbe
000000b0: 77db b43e 8ae8 133d e3e1 9bbe 7059 ebbd
000000c0: 2206 babd 74b1 c73d 00bd 29bb 166a 7b3e
000000d0: 35f0 13be b9d5 6bbe 67ed 46be 2d46 97be
000000e0: 5313 3dbe c843 82be c01b 8ebb 3462 113e
000000f0: 0056 72bb a6b1 143e bada ae3c bcb8 363e

model.2.weight f4 [32, 64]
-0.041658673 -0.12075269 0.030646127 -0.014888644 -0.073803104 -0.0905355 -0.013287442 -0.11105016
0.010348648 -0.063384704 0.05856723 -0.021875918 -0.12496023 0.05502832 0.07034589 -0.08654693
0.0061030034 0.030427143 0.044929337 -0.010305047 0.032951638 0.040867962 0.08073469 -0.011583913
0.059056923 -0.06615407 -0.00075030787 -0.004215777 0.010343354 0.09823124 0.054182395 0.062308628
0.05971539 -0.07277509 0.009195765 -0.12701069 0.02469112 0.029034495 -0.09894812 0.0038730204
0.064742506 -0.082878195 -0.04922543 -0.077583306 0.08010141 0.036010727 0.05597514 -0.0041671544
-0.12014647 -0.052097127 0.11432192 0.020534307 0.08476743 0.10051114 -0.06751196 0.003199828
-0.032444492 -0.05907902 0.058046743 0.0803953 -0.009644151 0.020519182 0.10570099 -0.009484082
0.108767256 -0.045761928 0.05944605 -0.027962908 0.060793802 -0.115933314 0.0037438571 0.035992637
-0.0679791 -0.11887668 -0.02967012 0.07960914 0.026620328 -0.015618488 -0.04924862 0.0004759282
0.055763125 -0.021930411 0.017152965 -0.009298176 -0.043130055 -0.114266545 -0.0648161 0.09805563
-0.028846443 0.026839226 0.0045569986 0.004270807 0.06340684 0.0011864752 -0.019611165 -0.09753139
0.031408876 -0.071235836 -0.070980564 -0.08506301 -0.03045401 -0.06355101 0.06907591 0.06812005
-0.06433953 0.023759022 -0.03252168 0.028351516 0.11827548 0.008939579 0.086859345 -0.0290377
-0.03251627 0.102980256 -0.025834948 0.0941087 -0.052793175 -0.1055015 0.055891424 -0.048224658
0.09515074 -0.12159413 0.034016028 -0.046930492 -0.10605955 0.003978476 -0.11883974 -0.08520171
-0.07817114 -0.09504713 -0.2450332 0.104393244 0.0057744537 0.11877578 -0.0164713 0.027535677
-0.03044786 -0.06771627 0.031980354 -0.033056587 0.123245925 0.10061039 0.034106348 -0.11354201
-0.06897387 0.07698482 -0.016435744 0.06323151 0.0367738 0.012520229 0.23949888 -0.07666502
-0.08901578 -0.07790801 -0.030085543 -0.09198929 0.061333552 -0.11785342 0.086795494 0.011919745
0.0116088 0.098177075 -0.07777533 0.09990424 -0.08815497 0.14356622 -0.06368889 -0.14913642
0.25268626 -0.16508406 0.12759332 0.07084279 0.13277744 -0.018663151 0.0690072 0.07828045
0.0649701 0.037916556 -0.11488813 -0.081232846 -0.11936878 -0.11905311 0.23485355 0.12416838
-0.07176505 -0.04888466 0.07970075 0.10335169 -0.07735337 0.15919872 -0.07552636 0.08485417
0.06538363 -0.016560912 -0.04496865 -0.12855312 0.0487025 0.0147456005 0.08653637 -0.031894818
-0.066413455 -0.08505457 -0.108700335 0.089310765 0.053553957 0.10945712 0.07054497 0.017339047
0.017114013 0.004763052 -0.10584215 -0.114207946 0.043746162 -0.058185 -0.25285202 -0.112612925
-0.07282609 -0.0031981969 0.10578582 0.05393921 0.04631088 -0.044548646 -0.013694758 -0.030080546
0.04108096 0.016921408 0.1254507 -0.11257448 -0.061673082 -0.12013844 0.05800797 0.022004355
-0.23520467 0.38158995 0.040607303 0.040117994 -0.059202574 -0.005473411 0.060087055 0.10309094
-0.11116604 0.10760312 0.008478656 -0.01254344 0.10117431 0.024248488 -0.16870013 -0.105166025
-0.026460484 0.045604482 -0.11369111 0.06300121 0.007457882 -0.42532882 0.06434024 -0.086721845
00000000: 49a2 2abd 304d f7bd 960d fb3c 80ef 73bc
00000010: 1526 97bd ad6a b9bd 92b3 59bc 446e e3bd
00000020: 608d 293c d7cf 81bd 31e4 6f3d 2035 b3bc
00000030: 26eb ffbd 6065 613d 8211 903d 843f b1bd
00000040: b4fb c73b 5842 f93c d307 383d 80d6 28bc
00000050: 4cf8 063d 2a65 273d 3b58 a53d 74ca 3dbc
00000060: ace5 713d c97b 87bd 4fb0 44ba 8024 8abb
00000070: 2c77 293c 762d c93d 5cee 5d3d 5537 7f3d
00000080: 2098 743d 1b0b 95bd d5a9 163c 170f 02be
00000090: 0845 ca3c c0d9 ed3c 50a5 cabd 80d2 7d3b
000000a0: b897 843d 0bbc a9bd 9ba0 49bd ffe3 9ebd
000000b0: 350c a43d fc7f 133d 3046 653d a08c 88bb
000000c0: 5a0f f6bd cc63 55bd 9c21 ea3d 9037 a83c
000000d0: 8c9a ad3d c9d8 cd3d b643 8abd 35b4 513b
000000e0: 84e4 04bd d8fc 71bd 6cc2 6d3d 4ba6 a43d
000000f0: 8002 1ebc d817 a83c c379 d83d 2063 1bbc
00000100: 5ec1 de3d dc70 3bbd b47d 733d 7812 e5bc
00000110: ec02 793d 726e edbd 805b 753b 046d 133d
00000120: a038 8bbd 9e75 f3bd c00e f3bc 1e0a a33d
00000130: e012 da3c b0e4 7fbc ecb8 49bd 0086 f939
00000140: e067 643d 68a7 b3bc 6084 8c3c 6057 18bc
00000150: 24a9 30bd 9404 eabd 4ebe 84bd 64d1 c83d
00000160: 604f ecbc f0dd db3c e052 953b 20f2 8b3b
00000170: 72db 813d 8083 9b3a 98a7 a0bc 8abe c7bd
00000180: 98a6 003d 18e4 91bd 425e 91bd 8435 aebd
00000190: b07a f9bc 0827 82bd ac77 8d3d 8682 8b3d
000001a0: 72c4 83bd 48a2 c23c 7435 05bd 7041 e83c
000001b0: 6a3a f23d 5077 123c 50e3 b13d 78e0 edbc
000001c0: c82f 05bd 50e7 d23d d0a3 d3bc 10bc c03d
000001d0: a83d 58bd 2c11 d8bd 68ee 643d 3887 45bd
000001e0: 64de c23d 5806 f9bd 6454 0b3d 303a 40bd
000001f0: c035 d9bd e05d 823b 4062 f3bd 3c7e aebd
00000200: 3118 a0bd 12a8 c2bd fce9 7abe 20cc d53d
00000210: a137 bd3b b740 f33d d2ee 86bc 8092 e13c
00000220: ca6d f9bc d4ae 8abd d5fd 023d 5866 07bd
00000230: 5c68 fc3d d20c ce3d 19b3 0b3d b788 e8bd
00000240: 2c42 8dbd 38aa 9d3d 41a4 86bc 867f 813d
00000250: 20a0 163d a621 4d3c 323f 753e 8d02 9dbd
00000260: e84d b6bd 3c8e 9fbd f575 f6bc e264 bcbd
00000270: e438 7b3d 225d f1bd d6c1 b13d 094b 433c
00000280: d632 3e3c 1011 c93d ac48 9fbd 989a cc3d
00000290: 988a b4bd 0603 133e 526f 82bd 38b7 18be
000002a0: 1860 813e cc0b 29be d3a7 023e 0616 913d
000002b0: cff6 073e 77e3 98bc a653 8d3d 8051 a03d
000002c0: 0b0f 853d 644e 1b3d 784a ebbd 685d a6bd
000002d0: 9e77 f4bd 1ed2 f3bd 737d 703e fe4b fe3d
000002e0: 8ef9 92bd 483b 48bd 263a a33d 0daa d33d
000002f0: 726b 9ebd fd04 233e 90ad 9abd 06c8 ad3d
00000300: dae7 853d c0aa 87bc 0c31 38bd 6ea3 03be
00000310: 467c 473d 8897 713c fb39 b13d 24a4 02bd
00000320: c703 88bd 1731 aebd 489e debd 90e8 b63d
00000330: 655b 5b3d 0e2b e03d e279 903d 9e0a 8e3c
00000340: b032 8c3c 6013 9c3b c5c3 d8bd dbe5 e9bd
00000350: 2d2f 333d 6553 6ebd d275 81be 9ba1 e6bd
00000360: d825 95bd d798 51bb 3ca6 d83d 5cef 5c3d
00000370: 7ab0 3d3d a478 36bd fa5f 60bc 7a6b f6bc
00000380: 8244 283d c49e 8a3c 2676 003e 738d e6bd
00000390: ea9c 7cbd 240b f6bd c499 6d3d 7a42 b43c
000003a0: 7ed9 70be c25f c33e d853 263d c452 243d
000003b0: 667e 72bd 4d5a b3bb d81d 763d 5821 d33d
000003c0: 05ab e3bd 065f dc3d 10ea 0a3c 0083 4dbc
000003d0: 7a34 cf3d c4a4 c63c babf 2cbe 4961 d7bd
000003e0: a8c3 d8bc c4cb 3a3d e2d6 e8bd c706 813d
000003f0: 4061 f43b b3c4 d9be d1c4 833d 399b b1bd

model.2.bias f4 [32]
-0.0006820782 -0.09643535 0.19965248 -0.18732257 0.04515317 0.012310877 -0.14026566 -0.118875824
-0.03213576 -0.0701654 -0.107566625 0.028085947 0.19511537 -0.07764689 -0.1811656 0.02979915
-0.07408901 0.031572353 -0.088819556 0.031996395 0.014713585 0.0604982 -0.072186485 0.07565295
0.109310016 0.049438857 -0.08902441 -0.106313586 -0.10201349 -0.08096889 0.13098279 -0.02717358
00000000: 7ecd 32ba e67f c5bd b371 4c3e 7dd1 3fbe
00000010: 88f2 383d 90b3 493c cda1 0fbe 2b75 f3bd
00000020: c9a0 03bd e1b2 8fbd e44b dcbd 8014 e63c
00000030: 53cc 473e 5505 9fbd 7a83 39be 591d f43c
00000040: fbbb 97bd 0352 013d 07e7 b5bd a70e 033d
00000050: 4011 713c f6cc 773d 82d6 93bd efef 9a3d
00000060: eedd df3d 6680 4a3d 6e52 b6bd f0ba d9bd
00000070: 73ec d0bd 04d3 a5bd 5a20 063e 219b debc

model.4.weight f4 [1, 32]
-0.06287318 -0.014474213 0.075698994 -0.026780905 0.05264048 -0.16125327 -0.13930121 -0.04856769
-0.021322142 0.16087176 -0.017700933 0.04176582 0.09465913 0.31881377 -0.13626534 0.13997142
-0.029422695 0.12674391 -0.0839043 0.1565875 -0.07874688 0.24319813 0.07159908 0.008961455
0.09497339 0.08114139 -0.003966838 -0.042085025 -0.025791746 -0.1505012 0.5622236 -0.065697215
00000000: a7c3 80bd 4025 6dbc 1308 9b3d a163 dbbc
00000010: 8b9d 573d 941f 25be faa4 0ebe eaee 46bd
00000020: c6ab aebc 91bb 243e 8c01 91bc a312 2b3d
00000030: a5dc c13d 8f3b a33e 2489 0bbe ab54 0f3e
00000040: dd07 f1bc 28c9 013e 05d6 abbd 7958 203e
00000050: 0b46 a1bd ee08 793e 8aa2 923d 11d3 123c
00000060: 6981 c23d 752d a63d 40fc 81bb 5961 2cbd
00000070: 3649 d3bc fd1c 1abe e3ed 0f3f 438c 86bd
